5_CRNN/weights/weight_hidden1.npy (npy, 262224 bytes, 1 tensors)

array f4 [2048, 32]
0	0xbd2680ba	-0.040650107
1	0x3a56b00f	0.0008189687
2	0xbc06ef8f	-0.008235826
3	0xa8dab445	-2.4281041e-14
4	0xb18bbef8	-4.067143e-09
5	0xbcfbcb9a	-0.030736733
6	0x887e86e9	-7.659393e-34
7	0xa99b0ea2	-6.885921e-14
8	0x88a32a49	-9.820147e-34
9	0x888e857d	-8.577697e-34
10	0x37fc2380	3.0057272e-05
11	0xbbaf93d6	-0.0053581996
12	0xae991c5d	-6.962673e-11
13	0xbcbeb451	-0.023279341
14	0x8878bd7a	-7.4852514e-34
15	0xb9e5327b	-0.00043715895
16	0xb963fcf0	-0.00021742634
17	0x3ca08493	0.019594466
18	0x2fb5a1f4	3.3038783e-10
19	0xbaad47b6	-0.0013220224
20	0xb5ee5c08	-1.7759166e-06
21	0x3d0633ec	0.03276436
22	0xacc3e974	-5.568152e-12
23	0xa75f2122	-3.0965428e-15
24	0xb91ca352	-0.00014938161
25	0x3da16746	0.07881026
26	0x9124941b	-1.2982957e-28
27	0xb34673f5	-4.620593e-08
28	0xba5deb59	-0.00084655505
29	0xb983d039	-0.00025141405
30	0x08459d34	5.9467322e-34
31	0xad801944	-1.4563135e-11
32	0xbd28ae79	-0.041182015
33	0x3b1e9cec	0.002420242
34	0xb90149fe	-0.00012329963
35	0x0961a52e	2.7161057e-33
36	0x09751664	2.950133e-33
37	0xbcb08d8f	-0.021551875
38	0x885b0012	-6.5903e-34
39	0x10b35f61	7.0750005e-29
40	0x88847782	-7.972557e-34
41	0x076b33e5	1.7694685e-34
42	0xaa467905	-1.762792e-13
43	0xb992e125	-0.00028015036
44	0xada2deb4	-1.8516168e-11
45	0x3d06c698	0.032904238
46	0x091f7049	1.9191725e-33
47	0xb30dc889	-3.3011506e-08
48	0x2f5121bc	1.9020424e-10
49	0x3a5b6372	0.00083690055
50	0x09134c34	1.7730312e-33
51	0xb0b284f7	-1.2988995e-09
52	0xa5d69f7c	-3.7231153e-16
53	0xbc0f302d	-0.008739513
54	0x159b5a1a	6.2746157e-26
55	0x88e544d3	-1.3798617e-33
56	0xaca991b9	-4.8194474e-12
57	0x3d5989d0	0.053109944
58	0x8d561d4e	-6.5979116e-31
59	0x07eadf03	3.5339481e-34
60	0xb5a4f78d	-1.2290999e-06
61	0xac475507	-2.83268e-12
62	0x892665df	-2.0029423e-33
63	0x0e059b7c	1.6468379e-30
64	0xb9c0c5c4	-0.0003676844
65	0xb785572a	-1.5895424e-05
66	0xab0095e5	-4.5682756e-13
67	0x08aadd34	1.0283507e-33
68	0x08e991be	1.4057441e-33
69	0x3c0857e5	0.008321737
70	0x88f63ed3	-1.4820356e-33
71	0x91b495f8	-2.8491418e-28
72	0x880d73b2	-4.2566643e-34
73	0x08bcf655	1.1372751e-33
74	0x880dec18	-4.270817e-34
75	0xae21b692	-3.6769317e-11
76	0x2e03aec2	2.9941168e-11
77	0x3b19f2aa	0.0023490586
78	0x088418d9	7.950303e-34
79	0x890655de	-1.6170038e-33
80	0x89100bb5	-1.7338874e-33
81	0x3aba0510	0.0014192183
82	0x093a3b59	2.241684e-33
83	0x9a8f3784	-5.9233104e-23
84	0x080411b8	3.9743133e-34
85	0x3b3309da	0.0027319104
86	0x0db1d7a8	1.0960385e-30
87	0x88ae4078	-1.0487401e-33
88	0x094c6f3b	2.4607907e-33
89	0xbb7c5d88	-0.0038507897
90	0x0ce4a4c0	3.5228117e-31
91	0x88cc5e4c	-1.22999725e-33
92	0xa1166479	-5.095495e-19
93	0x093ae7e9	2.249798e-33
94	0x08edbd26	1.4308387e-33
95	0x0cacb09c	2.660709e-31
96	0xbbdba3a9	-0.0067028594
97	0x39742ae9	0.00023285639
98	0xb5939da5	-1.0998234e-06
99	0x09297ffd	2.0402815e-33
100	0x892044c2	-1.929163e-33
101	0xbc3e08f2	-0.011598812
102	0x08ab5af0	1.0313067e-33
103	0x12526acd	6.639596e-28
104	0x886c1941	-7.1048353e-34
105	0x0931b4f0	2.1390676e-33
106	0x9c641b97	-7.547453e-22
107	0xb6be0d70	-5.6640056e-06
108	0xad6291d2	-1.2878991e-11
109	0xbccf21f8	-0.025284752
110	0x0929dabc	2.0445483e-33
111	0xa152a931	-7.137469e-19
112	0xa8005736	-7.124338e-15
113	0x3b771264	0.003770017
114	0x0906705b	1.6182493e-33
115	0xa7c782ac	-5.537527e-15
116	0x8844c7a6	-5.921629e-34
117	0x3b9d99cc	0.004809594
118	0x8ef53573	-6.0448633e-30
119	0x08792e28	7.498497e-34
120	0x996c60a5	-1.2220431e-23
121	0x3a57ba45	0.00082293554
122	0x0cf2ebd7	3.7427945e-31
123	0x890ec158	-1.7183538e-33
124	0xafa92a9d	-3.07712e-10
125	0xa3f8006e	-2.6888396e-17
126	0x882c8324	-5.1913522e-34
127	0x8d89bac6	-8.488241e-31
128	0xbcb6bbf6	-0.022306424
129	0xba2b3d0a	-0.0006532228
130	0xba1b7431	-0.00059300946
131	0x06ae2960	6.551232e-35
132	0x099b2407	3.7348773e-33
133	0x3c85d38a	0.016336221
134	0x0967a04f	2.788099e-33
135	0x9263b054	-7.184591e-28
136	0x88971c69	-9.094661e-34
137	0x87420c54	-1.4598561e-34
138	0xaf0bcf4c	-1.2715623e-10
139	0xba8a03c8	-0.0010529691
140	0xadef89ba	-2.7232317e-11
141	0x3d03a3c2	0.032138593
142	0x07fdf839	3.8213101e-34
143	0xb3713663	-5.616165e-08
144	0xb0bdc0f7	-1.3806404e-09
145	0x3c141189	0.009037384
146	0x9288dad7	-8.636755e-28
147	0xb188f4bf	-3.9859454e-09
148	0xa0b2e9a8	-3.0308994e-19
149	0x3c0031e0	0.007824391
150	0x10ea290c	9.235997e-29
151	0x08a51373	9.935149e-34
152	0xad39319b	-1.0527047e-11
153	0xbbe6f535	-0.007048274
154	0x8d91108d	-8.940299e-31
155	0x952c041e	-3.473837e-26
156	0xb7e8684e	-2.7705126e-05
157	0xab5fb352	-7.947437e-13
158	0x07b43f96	2.7120762e-34
159	0x0e635397	2.8020157e-30
160	0xbbb665e8	-0.0055663474
161	0x3a08ae5c	0.000521397
162	0xb5225456	-6.047243e-07
163	0x096e87c4	2.8712045e-33
164	0x07e500f0	3.4456641e-34
165	0x3cdb0b5a	0.026738811
166	0x0900e3bf	1.5514525e-33
167	0x91058a3c	-1.0534447e-28
168	0x888ad90e	-8.356602e-34
169	0x09818014	3.1176064e-33
170	0xa0287c6f	-1.4271325e-19
171	0xb739c1a1	-1.1071942e-05
172	0xadab1285	-1.9448674e-11
173	0x3cd80974	0.026371695
174	0x0956cd4b	2.5855841e-33
175	0x9b2a6b77	-1.4096794e-22
176	0xa6866c16	-9.327415e-16
177	0x3af6f458	0.0018841131
178	0x0900f42b	1.5522247e-33
179	0xae32c875	-4.0650556e-11
180	0x87e36967	-3.4217114e-34
181	0x3b8b28d3	0.00424681
182	0x1022f9bb	3.2141252e-29
183	0x07fc8bfa	3.7999017e-34
184	0x99378bb3	-9.48909e-24
185	0xbc681b55	-0.014166673
186	0x0cc90827	3.097386e-31
187	0x8901132c	-1.5536825e-33
188	0xafa3aa45	-2.977051e-10
189	0xab58ea27	-7.7063567e-13
190	0x07f17d0d	3.6335148e-34
191	0x0d4f307e	6.384517e-31
192	0xbb23a475	-0.002496985
193	0xba5a813d	-0.0008335298
194	0xb2a943c9	-1.9705015e-08
195	0x0902e93b	1.5757845e-33
196	0x07863712	2.0194447e-34
197	0x3c3e8ea2	0.011630686
198	0x87b6d026	-2.7506655e-34
199	0x11c5cc35	3.1206972e-28
200	0x88489f7a	-6.0372775e-34
201	0x08e4e5d4	1.3776283e-33
202	0x8e40e70c	-2.3777072e-30
203	0xb4750287	-2.2818323e-07
204	0x2df55c34	2.7894222e-11
205	0x3ae5e0ad	0.0017538272
206	0x090cb772	1.6938143e-33
207	0x8f93c849	-1.4572466e-29
208	0x9bda3ad1	-3.6103084e-22
209	0x3b8c1159	0.004274529
210	0x08194d9e	4.6133e-34
211	0x98430da4	-2.5210046e-24
212	0x085c9472	6.637834e-34
213	0x3baf12bf	0.005342811
214	0x8f9bc128	-1.5358581e-29
215	0x086e8dd6	7.1787247e-34
216	0x095daa02	2.6681845e-33
217	0xbc26049e	-0.010132937
218	0x0d1aa064	4.7647977e-31
219	0x0875498e	7.381347e-34
220	0xab5ce5d7	-7.847867e-13
221	0x88e5e968	-1.383731e-33
222	0x89648a5b	-2.7509556e-33
223	0x8d6161fd	-6.9451427e-31
224	0xbc247fe7	-0.01004026
225	0x3a8df806	0.0010831363
226	0xb9558e4f	-0.00020366277
227	0x0707ec36	1.0225687e-34
228	0x8813e82e	-4.450913e-34
229	0xbb9d1e0f	-0.004794843
230	0x093fecb3	2.3102084e-33
231	0x125cea2e	6.970841e-28
232	0x889819f0	-9.154265e-34
233	0x073c7049	1.4176546e-34
234	0xad6408b7	-1.2962235e-11
235	0xb99d6b10	-0.0003002514
236	0xae69678f	-5.3070045e-11
237	0xbc357f36	-0.011077693
238	0x07b7adf4	2.763702e-34
239	0xaeff7002	-1.1615954e-10
240	0xb2c39169	-2.2767113e-08
241	0x3b6f57af	0.003652077
242	0x0ea14b72	3.9762215e-30
243	0xb1f4edb9	-7.1283606e-09
244	0x9393a95a	-3.727501e-27
245	0x3c76dfe8	0.015068032
246	0x0de8a090	1.4336758e-30
247	0x896a291d	-2.8186057e-33
248	0xb0184837	-5.53999e-10
249	0x3ca2259e	0.019793328
250	0x0d896845	8.468379e-31
251	0x93e32c23	-5.734638e-27
252	0xb745efa8	-1.1797914e-05
253	0xaa65489a	-2.0364475e-13
254	0x881540c4	-4.491419e-34
255	0x8d9b7370	-9.580403e-31
