5_CRNN/weights/weight_hidden.npy (npy, 262224 bytes, 1 tensors)

array f4 [2048, 32]
0	0xafde141d	-4.0395856e-10
1	0xba8dff93	-0.0010833613
2	0xb70783d8	-8.077324e-06
3	0x089359d7	8.868362e-34
4	0xbbdd17fa	-0.006747243
5	0xb5faf6ce	-1.8698281e-06
6	0x916a9791	-1.850605e-28
7	0xbb14b759	-0.0022692292
8	0xb914849e	-0.00014163784
9	0x08e293ba	1.3636611e-33
10	0x3c8d73f3	0.017267203
11	0x3c1fc78d	0.009752166
12	0xaa91fcb2	-2.5932517e-13
13	0x87048743	-9.970326e-35
14	0xb76d0fa7	-1.4129945e-05
15	0xbd1b566b	-0.03792421
16	0x884bd708	-6.134086e-34
17	0xb60566e2	-1.987843e-06
18	0xbb4e995e	-0.003152452
19	0xb63498dd	-2.6911068e-06
20	0x3c0a22fe	0.008431194
21	0xbcaf78c0	-0.021419883
22	0xbb251243	-0.0025187887
23	0x3ba2fa60	0.0049736947
24	0x3d9025a5	0.0703843
25	0xbc5d613b	-0.013511951
26	0xbd20f250	-0.039293587
27	0x3cc5f31b	0.024163773
28	0xbd1a31c9	-0.037645135
29	0x9c38e17f	-6.117194e-22
30	0x3e310831	0.17288281
31	0x9d49906a	-2.6676789e-21
32	0x88a7b439	-1.0093317e-33
33	0xb3b0af28	-8.2274994e-08
34	0x34d0def6	3.8905245e-07
35	0x89610ff6	-2.7090895e-33
36	0xb9174d01	-0.00014429168
37	0xa1816882	-8.769043e-19
38	0x8fdd74ee	-2.1837322e-29
39	0xb4138011	-1.3737032e-07
40	0xaef5e4cc	-1.11819526e-10
41	0x887bfd4f	-7.583033e-34
42	0x3bc135a7	0.0058962884
43	0x3e18b68d	0.14913388
44	0xaa76ebba	-2.1930973e-13
45	0x095ca095	2.6557042e-33
46	0xa75d5018	-3.071333e-15
47	0x3d885fa3	0.06658866
48	0x08dba90e	1.3220328e-33
49	0xa098f651	-2.59128e-19
50	0xb5c26479	-1.4483368e-06
51	0x3412a084	1.3655705e-07
52	0x3bd0ef5f	0.0063761915
53	0x3cb90bf2	0.022588704
54	0xb6faec31	-7.478077e-06
55	0x3b04313d	0.002017095
56	0x3bc0f684	0.005888762
57	0x3c5caf46	0.013469523
58	0xbd716a13	-0.05893905
59	0x3c04526c	0.0080762915
60	0xb9a54252	-0.00031520665
61	0x882bf9e8	-5.1752204e-34
62	0xbc40283c	-0.011728343
63	0x07ad82a2	2.6106926e-34
64	0x0780c73b	1.9376397e-34
65	0x092e556f	2.0984659e-33
66	0xb63e5d90	-2.8366667e-06
67	0x091143e5	1.7485664e-33
68	0x24bbd4b8	8.145868e-17
69	0x084e7a5e	6.213471e-34
70	0x0f0539ba	6.568524e-30
71	0x8fdab8e1	-2.1567672e-29
72	0x888f812d	-8.6368685e-34
73	0x091dfbfb	1.9016668e-33
74	0x3a097e95	0.00052449974
75	0xbc3d8e41	-0.0115695605
76	0xa998ba21	-6.782444e-14
77	0x08f70f18	1.486932e-33
78	0x08d7cd6f	1.2988139e-33
79	0xbd08973f	-0.033347365
80	0x88ea01eb	-1.4083814e-33
81	0x08b215f9	1.0718151e-33
82	0x08b12100	1.0660558e-33
83	0xb507ed4d	-5.0636737e-07
84	0xbb3eb1c1	-0.0029097649
85	0xbc87f94c	-0.016598366
86	0xa7003f49	-1.7797875e-15
87	0x3ad134da	0.0015961186
88	0x3bd3e370	0.0064663216
89	0xba1a318d	-0.00058820174
90	0xbbacd284	-0.005274119
91	0xbbf81860	-0.007571265
92	0x9fb95fed	-7.8509244e-20
93	0x8956711d	-2.5812499e-33
94	0x3cdb1266	0.026742171
95	0x085e7d1c	6.695276e-34
96	0x8898a09d	-9.185927e-34
97	0xae986877	-6.9307164e-11
98	0x36e52b04	6.8297395e-06
99	0x08d38192	1.2729562e-33
100	0xb3aa40aa	-7.928004e-08
101	0x087ef4cf	7.6723116e-34
102	0x0f549234	1.0480565e-29
103	0xa7af0a12	-4.8583176e-15
104	0xa2e7881e	-6.2756795e-18
105	0x888f3302	-8.618491e-34
106	0x3bac1a95	0.0052521923
107	0xbbe375a2	-0.006941513
108	0x2a1415cb	1.3152602e-13
109	0x09711faa	2.9024208e-33
110	0x9064705c	-4.505163e-29
111	0xbc97dfb2	-0.018539283
112	0x086dbeca	7.1543865e-34
113	0x89016111	-1.557345e-33
114	0xb2125d12	-8.51948e-09
115	0x35d1e449	1.5638153e-06
116	0x3bb2552c	0.005442282
117	0xbc774832	-0.015092896
118	0xb3a59515	-7.710529e-08
119	0xba1b71c6	-0.00059297343
120	0x3c4e8140	0.012604058
121	0x396b51a5	0.00022441761
122	0xbcc8260c	-0.024432205
123	0xba13f678	-0.00056443317
124	0xb81eab90	-3.7829916e-05
125	0x889e268c	-9.518341e-34
126	0x3ce859a2	0.028363053
127	0x06a5e64a	6.240448e-35
128	0x0909c09c	1.658134e-33
129	0xb4633a88	-2.1162316e-07
130	0xb62eb414	-2.603284e-06
131	0x08a0eb28	9.684935e-34
132	0xb9276d11	-0.00015966991
133	0xa8851a5b	-1.4777396e-14
134	0x0fb63229	1.7965907e-29
135	0xb6bb3a40	-5.5798155e-06
136	0xafe2289c	-4.1138015e-10
137	0x08d8957e	1.3035173e-33
138	0x3cf3c54d	0.029757166
139	0xbe0c8e1a	-0.13726082
140	0x2aba713b	3.3118807e-13
141	0x88bde7d8	-1.142953e-33
142	0xac9b9b9c	-4.422641e-12
143	0xbd63d5c2	-0.055623777
144	0x09378a97	2.2092988e-33
145	0xa4a8963a	-7.311288e-17
146	0xb5fde58e	-1.8916778e-06
147	0xb2f3ca54	-2.8380931e-08
148	0xbb9baed1	-0.0047510643
149	0xbd0a14f4	-0.03371139
150	0xb86fe57f	-5.7195775e-05
151	0x3bced30c	0.00631178
152	0x3d4c3e35	0.049864013
153	0xbb0e6c8f	-0.0021732186
154	0xbdbd604e	-0.09246884
155	0x3c9bdce1	0.019026222
156	0xba4d3a43	-0.0007828811
157	0x0872a177	7.3014027e-34
158	0x3da1470a	0.07874878
159	0x885c755e	-6.6341806e-34
160	0x0875306c	7.3783925e-34
161	0xa4d0f83d	-9.062615e-17
162	0x37c6db64	2.3705601e-05
163	0x08cff5ba	1.2516129e-33
164	0xafc623b0	-3.6041348e-10
165	0x09219110	1.9447878e-33
166	0x0f0a5bac	6.821581e-30
167	0xa586dae0	-2.339361e-16
168	0x8f4af566	-1.0006631e-29
169	0x88b612cf	-1.0958148e-33
170	0x3ad68c16	0.0016368653
171	0x3af801d7	0.0018921447
172	0xa93892bf	-4.098349e-14
173	0x8872975c	-7.300215e-34
174	0x0967d7e9	2.7907134e-33
175	0xbd2519f3	-0.04030795
176	0x07bacb3c	2.810562e-34
177	0x893d002a	-2.2750125e-33
178	0xa9b28c80	-7.929161e-14
179	0x36f93d48	7.4279124e-06
180	0xbb08e777	-0.0020889917
181	0xbcd4d816	-0.025981944
182	0xb3cfc0ad	-9.674236e-08
183	0xbac71789	-0.0015189509
184	0x3cc373ae	0.023858871
185	0xbbdb52bc	-0.0066932123
186	0xbc6e3acc	-0.014540385
187	0x3b076c52	0.002066393
188	0xb51eae39	-5.9113114e-07
189	0x094f778f	2.4972935e-33
190	0x3d100773	0.035163354
191	0x05445c70	9.232854e-36
192	0x08da351f	1.3132886e-33
193	0x9f67913a	-4.903628e-20
194	0x36b53e3a	5.4014645e-06
195	0x094215c3	2.3362133e-33
196	0x27ce0908	5.7186277e-15
197	0x091043ed	1.7365308e-33
198	0x0e5f6598	2.7535788e-30
199	0xa1acbac0	-1.1704606e-18
200	0x87695a19	-1.7555449e-34
201	0x08ebb9d1	1.4187233e-33
202	0x3bd09fc1	0.0063667004
203	0xbc14f9b6	-0.009092739
204	0x29ccac35	9.089293e-14
205	0x87be99db	-2.867845e-34
206	0x093a6191	2.2434811e-33
207	0xbd0f1dff	-0.034940716
208	0x8909a8fa	-1.6570228e-33
209	0x8896c22d	-9.073447e-34
210	0xa5f2ed6b	-4.214119e-16
211	0x35f63675	1.8344277e-06
212	0xb83040fd	-4.2022195e-05
213	0xbcab15d7	-0.020884437
214	0xaf6dc11b	-2.1623629e-10
215	0xb8722063	-5.772746e-05
216	0x3c209f68	0.00980363
217	0xbae22afe	-0.0017255244
218	0xbb822713	-0.003971943
219	0xbb3b289d	-0.0028558143
220	0xb381da1d	-6.046705e-08
221	0x891cf3ea	-1.8892505e-33
222	0x3ca33ea6	0.019927334
223	0x08a8a133	1.014903e-33
224	0x8903ab83	-1.5849196e-33
225	0xb28a3096	-1.6087409e-08
226	0xb81c38cf	-3.7246205e-05
227	0x889b4234	-9.344287e-34
228	0xb884d22b	-6.333397e-05
229	0xa3e72708	-2.50616e-17
230	0x0f808161	1.267161e-29
231	0xb36d1873	-5.52031e-08
232	0xad93acf1	-1.6788767e-11
233	0x08c854f1	1.2057032e-33
234	0xbb0dd595	-0.0021642197
235	0xbd6159e5	-0.05501737
236	0xaa019f3a	-1.1512744e-13
237	0x89774167	-2.9762296e-33
238	0xa95f5b4b	-4.959513e-14
239	0xbd880414	-0.06641403
240	0x092788c1	2.0166195e-33
241	0x9f7d8a85	-5.3689415e-20
242	0xb476bc4a	-2.2979034e-07
243	0xb73b5ab1	-1.1167184e-05
244	0x3aa5fdcb	0.0012664137
245	0xbd2dca00	-0.04242897
246	0xb7bf68ef	-2.2817838e-05
247	0x3b85d004	0.0040836353
248	0x3d27c2fc	0.040957436
249	0x3999a6d5	0.00029306734
250	0xbdef7817	-0.11692827
251	0x3d3642fb	0.04449747
252	0xb9a6eefa	-0.0003184004
253	0x885186aa	-6.3051947e-34
254	0x3db47eb5	0.0881323
255	0x8854e8a4	-6.4069897e-34
